app/src/main/ml/crop_recommendation.tflite (tflite, 44924 bytes, 6 tensors)

sequential/dense_1/BiasAdd/ReadVariableOp f4 [64]
0.03839214 0.25493935 0.07507819 -0.048044477 0.110195965 0.009748885 0.1676072 -0.012109855
0.20768517 0.0022366785 -0.0029231107 0.0067537087 0.052131843 0.043177392 0.17251062 0.16016904
0.131925 0.103151344 0.045766223 0.13171375 0.26525685 -0.037885398 -0.117215574 -0.008275461
-0.027858613 0.1482317 0.115038276 0.14094916 0.019642774 0.13527098 0.14350261 0.24029678
-0.046150733 0.041474715 0.022724174 0.24342895 -0.036965374 0.16846977 0.007030414 0.19867063
-0.0032503125 0.042731162 0.20899047 0.18114561 0.08946174 -0.029408135 -0.021499 0.14203621
0.05843949 0.1499288 0.12052497 -0.0077679767 0.13290922 0.11816273 -0.011643092 0.10091351
0.07385093 0.014479376 -0.026148183 0.10675357 0.053587116 -0.0068299915 0.008159029 0.10824084
00000000: 1441 1d3d 6987 823e 98c2 993d 49ca 44bd
00000010: 6cae e13d cab9 1f3c 39a1 2b3e 6a68 46bc
00000020: 6cab 543e 3d95 123b a991 3fbb 374e dd3b
00000030: 3388 553d c7da 303d a0a6 303e 5a03 243e
00000040: 5917 073e 0341 d33d 5d75 3b3d f8df 063e
00000050: bfcf 873e b82d 1bbd b80e f0bd cd95 07bc
00000060: bf37 e4bc 0dca 173e 3099 eb3d fa54 103e
00000070: e2e9 a03c 7a84 0a3e 59f2 123e 5c10 763e
00000080: 8d08 3dbd 64e1 293d 0c28 ba3c 7045 793e
00000090: 0169 17bd 5783 2c3e 635f e63b 5070 4b3e
000000a0: 3203 55bb df06 2f3d 9901 563e 3c7e 393e
000000b0: b737 b73d 54e9 f0bc ac1e b0bc f171 113e
000000c0: 3f5e 6f3d ef86 193e ccd5 f63d 838a febb
000000d0: 5b19 083e 4dff f13d abc2 3ebc beab ce3d
000000e0: 283f 973d e83a 6d3c b734 d6bc 9ea1 da3d
000000f0: 2a7e 5b3d 1fce dfbb 73ad 053c 60ad dd3d

sequential/dense_2/BiasAdd/ReadVariableOp f4 [22]
-0.14183919 0.11114608 0.11231199 -0.05408136 -0.0695226 0.019123502 -0.035679866 -0.041590635
-0.10448806 0.059274673 -0.06370173 0.054553397 0.028027996 0.08749731 -0.029345734 0.14420317
0.03946973 -0.042096317 -0.00049750705 -0.04617709 0.0030267558 -0.09076891
00000000: 4b3e 11be 8ea0 e33d d403 e63d 6b84 5dbd
00000010: dd61 8ebd e4a8 9c3c 0d25 12bd f15a 2abd
00000020: d6fd d5bd 00ca 723d 0d76 82bd 6273 5f3d
00000030: f89a e53c ca31 b33d 7766 f0bc ffa9 133e
00000040: 03ab 213d 306d 2cbd 226b 02ba 3024 3dbd
00000050: 895c 463b 0de5 b9bd

sequential/dense/BiasAdd/ReadVariableOp f4 [128]
0.15480477 0.21735977 0.1371397 0.118792824 0.064098135 0.36913794 0.06442577 0.26132023
0.41728872 0.2067676 0.143779 0.18226142 0.10823676 0.17531046 0.043167572 0.003016642
0.20645969 -0.07365336 0.36829397 0.25521487 -0.022596065 0.2811756 0.3458296 0.36127496
0.30058452 0.15240227 0.15332277 0.11955586 0.18244109 0.0402227 0.10464334 0.2256501
0.26652178 0.23191102 0.08153316 0.2496938 0.26548976 0.2896332 0.27503955 0.26079828
0.11940154 0.14581214 0.08025607 -0.049670696 -0.021704799 0.16223243 0.2741016 0.18992609
0.14660448 0.0041644233 0.009495237 0.2655437 0.1173997 0.26948553 0.23533723 0.027401105
0.04308608 0.0734604 0.1372511 0.35339165 0.13408794 -0.021406408 0.2873697 0.31525677
0.33753383 0.23687243 0.17892039 0.20054169 0.3712244 0.10045439 0.10804856 0.30464467
0.3615591 0.25185838 0.37068486 0.060401686 0.101251766 0.015639761 0.22347076 0.017845586
0.11008369 0.085019946 0.018844433 0.25684768 0.04685387 0.15892085 0.14676754 0.07795817
-0.028031467 0.16335309 0.21850316 -0.0004671914 0.1512306 0.21966314 0.16924044 0.13863438
0.32183424 0.28560093 0.22112243 0.14397028 0.22024958 0.21998891 0.12864327 0.2291152
0.09983311 0.31841263 0.35249266 0.055688992 0.06926817 0.3576841 0.34018487 0.058840208
0.11263543 0.28811538 -0.043675806 0.035083257 0.1863827 0.28734845 0.17950806 0.20263076
0.31767765 0.14465486 0.17739366 0.19291262 -0.10039361 0.33085117 0.36718294 0.26779488
00000000: 2485 1e3e 8f93 5e3e 596e 0c3e a749 f33d
00000010: e245 833d a6ff bc3e a8f1 833d c4cb 853e
00000020: dea6 d53e e3ba 533e cd3a 133e bda2 3a3e
00000030: 3cab dd3d 9684 333e 7bd0 303d dbb2 453b
00000040: 2b6a 533e 93d7 96bd 0791 bc3e 86ab 823e
00000050: 621b b9bc 40f6 8f3e 9410 b13e 08f9 b83e
00000060: 37e6 993e 570f 1c3e a500 1d3e b4d9 f43d
00000070: d6d1 3a3e 8fc0 243d 3f4f d63d d210 673e
00000080: 8b75 883e 157a 6d3e dbfa a63d bbaf 7f3e
00000090: 46ee 873e ce4a 943e fcd1 8c3e 5a87 853e
000000a0: cb88 f43d c74f 153e 4b5d a43d 8073 4bbd
000000b0: 43ce b1bc 4220 263e 0b57 8c3e fc7b 423e
000000c0: 7c1f 163e b775 883b e991 1b3c 58f5 873e
000000d0: 416f f03d 02fa 893e 3efc 703e 4878 e03c
000000e0: 087b 303d 6872 963d 8d8b 0c3e c0ef b43e
000000f0: 594e 093e 7e5c afbc 1f22 933e 5669 a13e
00000100: 3cd1 ac3e b08e 723e e836 373e cd5a 4d3e
00000110: 2011 be3e 08bb cd3d 9048 dd3d 63fa 9b3e
00000120: 461e b93e 95f3 803e 68ca bd3e c267 773d
00000130: 165d cf3d f51e 803c 85d5 643e e830 923c
00000140: 8f73 e13d f01e ae3d a45f 9a3c 8a81 833e
00000150: d8e9 3f3d 26bc 223e 3b4a 163e 88a8 9f3d
00000160: 3fa2 e5bc 0846 273e 4bbf 5f3e 5ef1 f4b9
00000170: 32dc 1a3e 60ef 603e 5e4d 2d3e 2cf6 0d3e
00000180: 75c7 a43e 493a 923e eb6d 623e f26c 133e
00000190: 1b89 613e c644 613e 10bb 033e 2d9d 6a3e
000001a0: 4d75 cc3d fb06 a33e eb79 b43e 241a 643d
000001b0: 78dc 8d3d 5f22 b73e b62c ae3e 6e02 713d
000001c0: 68ad e63d dc83 933e 67e5 32bd 76b3 0f3d
000001d0: 1bdb 3e3e 561f 933e f6d0 373e 707e 4f3e
000001e0: a5a6 a23e 6720 143e afa6 353e e38a 453e
000001f0: 2a9b cdbd 5365 a93e 67ff bb3e 691c 893e

sequential/dense/MatMul f4 [128, 7]
0.009880279 -0.50941503 0.07920139 -0.05531827 -0.5114044 0.34943396 0.08838083 0.13374871
-0.4468147 -0.0044014994 0.011160355 -0.26818207 0.3171371 -0.021486191 0.19844091 -0.41940522
-0.23916642 0.18562032 -0.28618547 0.17802154 0.0748698 -0.38906398 -0.41904226 -0.465847
-0.35377023 0.13025218 0.22160923 0.045623843 -0.059794407 -0.32325217 -0.47305357 0.32134348
0.01920649 -0.26594326 -0.1108107 0.07985221 0.38111782 0.13278343 0.27598038 0.10604517
0.023701448 0.28220165 -0.3331027 0.34588307 0.17735264 -0.037199747 -0.21440198 -0.012724012
-0.052670922 -0.029887037 -0.00042144308 -0.65972143 -0.054256648 0.021247432 0.05685125 -0.14282228
-0.37368307 -0.22004311 0.24052368 -0.02364956 0.370203 -0.22212888 0.20930418 -0.03651673
0.38536453 0.08195941 0.16614 0.17127647 -0.23145427 0.34529507 0.42859876 0.27762118
0.28016475 0.22797035 0.50059766 0.17172302 0.11785992 -0.3855288 0.09361245 0.088757545
0.2900323 -0.46115312 0.21997829 -0.37207395 -0.3198486 0.056920804 0.2498285 0.22247823
0.21537328 -0.44283897 0.049547266 0.1517347 0.45934075 0.2700987 -0.043821897 -0.2541325
-0.12576143 -0.5054551 0.30131614 -0.025593368 -0.3810874 -0.0038992667 -0.52579784 -0.08027911
0.2701121 0.20567411 0.033782985 0.18236122 -0.2721711 -0.1945947 0.12502249 0.38540062
-0.16383162 -0.23881114 0.34376466 0.26576406 0.48213184 -0.11125895 0.018656418 -0.2245687
0.25410634 0.042224817 0.24750832 -0.25377342 0.24897489 -0.41704634 0.12218637 0.5865755
-0.31924492 0.2580271 -0.055773746 -0.13323806 0.050988846 0.2491517 -0.2877388 0.0063150157
0.31280223 0.45636362 0.054964226 -0.109583504 -0.2931235 -0.17349263 -0.2357116 -0.27318573
0.119346485 0.31787652 -0.27491206 0.2599566 -0.06377735 -0.036126036 -0.108988896 -0.16349435
0.27191862 0.22496676 0.13805307 0.14045873 0.31449994 -0.29383773 -0.0035626928 -0.14059436
-0.038700115 -0.18708086 0.52573764 -0.3297744 0.27197435 0.32035148 0.0834524 0.08455828
-0.18147242 -0.29682347 -0.35820884 -0.11654657 0.254163 -0.080919236 -0.012551392 0.41897568
-0.027318096 -0.25766286 0.14597769 0.007372953 -0.29304492 -0.0850111 0.34239247 0.15820383
-0.664177 -0.2465648 0.2327327 -0.17132156 0.40830392 -0.25923324 0.3227986 -0.34119493
0.21568367 0.43810818 0.0899183 -0.5075964 -0.26240763 -0.061970584 0.4331386 -0.11019855
0.016016655 0.26527575 -0.30467612 0.2627639 0.12702066 0.014748723 0.13387004 0.49870503
-0.18171291 0.23615554 -0.3871554 -0.23601511 0.36406976 0.016717918 -0.39959857 -0.21393633
-0.17932637 0.2337347 -0.109103784 -0.38807148 0.11313014 0.32645065 -0.014675087 -0.10163227
-0.012963132 -0.01777755 -0.40044585 -0.0041698585 -0.39959717 0.06132174 -0.112835065 -0.07201191
0.15208401 0.2113629 0.03387006 -0.016558886 0.35155973 0.20666431 0.38676915 -0.31215176
-0.04888002 0.17310019 -0.17628619 0.26993334 -0.056700986 0.27835223 0.08762956 -0.6448152
0.028413406 -0.45222566 0.08583082 0.14037746 -0.32337368 -0.23822498 0.045815848 0.2442788
00000000: e5e0 213c 0669 02bf 5734 a23d 6995 62bd
00000010: 66eb 02bf 02e9 b23e 0201 b53d 6cf5 083e
00000020: e5c4 e4be 743a 90bb ecd9 363c 294f 89be
00000030: cb5f a23e cf03 b0bc 1834 4b3e 48bc d6be
00000040: 0be8 74be 4113 3e3e e786 92be 474b 363e
00000050: 5655 993d 6533 c7be b58c d6be 7f83 eebe
00000060: 5f21 b5be d460 053e 88ed 623e 11e0 3a3d
00000070: fbea 74bd 4f81 a5be 1434 f2be 2287 a43e
00000080: ee56 9d3c b729 88be b8f0 e2bd 8e89 a33d
00000090: e021 c33e 61f8 073e 4d4d 8d3e 362e d93d
000000a0: 8a29 c23c bc7c 903e 708c aabe 9617 b13e
000000b0: ee9b 353e c35e 18bd 318c 5bbe 6078 50bc
000000c0: 77bd 57bd a9d5 f4bc 22f5 dcb9 81e3 28bf
000000d0: 383c 5ebd 180f ae3c dbdc 683d 0140 12be
000000e0: 6353 bfbe fb52 61be d74b 763e b9bc c1bc
000000f0: 3f8b bd3e c175 63be d653 563e 9192 15bd
00000100: 804e c53e 56da a73d 9b20 2a3e 1963 2f3e
00000110: 5902 6dbe 84ca b03e 4c71 db3e 5d24 8e3e
00000120: c171 8f3e 0f71 693e 2b27 003f 29d8 2f3e
00000130: 8b60 f13d 0864 c5be e2b7 bf3d 84c6 b53d
00000140: 1d7f 943e 431c ecbe fd41 613e 7a80 bebe
00000150: 32c3 a3be ca25 693d 0bd3 7f3e 55d1 633e
00000160: d08a 5c3e cabb e2be 13f2 4a3d 5760 1b3e
00000170: b62e eb3e 604a 8a3e 977e 33bd a81d 82be
00000180: 9bc7 00be 8165 01bf 1c46 9a3e 2fa9 d1bc
00000190: e31d c3be d78a 7fbb b09a 06bf 6069 a4bd
000001a0: 224c 8a3e 3c9c 523e 0760 0a3d e6bc 3a3e
000001b0: 035a 8bbe d543 47be e505 003e 3b53 c53e
000001c0: 7ac3 27be e88a 74be ec01 b03e 3a12 883e
000001d0: fcd9 f63e bbdb e3bd 58d5 983c 56f5 65be
000001e0: 3a1a 823e eef3 2c3d d272 7d3e 97ee 81be
000001f0: 46f3 7e3e 1987 d5be d93c fa3d d029 163f
00000200: 1274 a3be 211c 843e 0373 64bd 8f6f 08be
00000210: aed9 503d a021 7f3e 8052 93be 31ee ce3b
00000220: 9d27 a03e 7ea8 e93e 2b22 613d 516d e0bd
00000230: 4914 96be 0da8 31be 625e 71be 00df 8bbe
00000240: ee6b f43d b6c0 a23e 46c1 8cbe 0819 853e
00000250: b39d 82bd e5f8 13bd 9235 dfbd 106b 27be
00000260: eb38 8b3e b05d 663e c95d 0d3e 6ad4 0f3e
00000270: 2306 a13e e671 96be 117c 69bb f8f7 0fbe
00000280: 0384 1ebd 2092 3fbe be96 063f 31d8 a8be
00000290: 3940 8b3e 1c05 a43e 18e9 aa3d e42c ad3d
000002a0: e8d3 39be 3ff9 97be 2667 b7be f8af eebd
000002b0: a721 823e fcb8 a5bd 5ba4 4dbc fb83 d63e
000002c0: 33ca dfbc 63ec 83be 2d7b 153e d098 f13b
000002d0: fc09 96be 4d1a aebd 114e af3e 2f00 223e
000002e0: 8107 2abf 7c7b 7cbe 7b51 6e3e eb6e 2fbe
000002f0: 360d d13e 38ba 84be dc45 a53e 1ab1 aebe
00000300: 2edc 5c3e b74f e03e 1627 b83d d6f1 01bf
00000310: 4b5a 86be ded4 7dbd 58c4 dd3e c7af e1bd
00000320: 5c35 833c 39d2 873e 82fe 9bbe fd88 863e
00000330: b411 023e a1a4 713c 3a15 093e 4456 ff3e
00000340: f312 3abe c2d2 713e 3c39 c6be f2ad 71be
00000350: 5a67 ba3e 04f4 883c 2f98 ccbe 2012 5bbe
00000360: 55a1 37be 2658 6f3e ce71 dfbd 4eb1 c6be
00000370: c6b0 e73d 8a24 a73e c76f 70bc 9424 d0bd
00000380: 5163 54bc 39a2 91bc 3d07 cdbe 4fa3 88bb
00000390: 0098 ccbe 812c 7b3d 1216 e7bd fb7a 93bd
000003a0: e9bb 1b3e 846f 583e 55bb 0a3d 80a6 87bc
000003b0: a3ff b33e cf9f 533e 9b06 c63e 5bd2 9fbe
000003c0: 6a36 48bd 2d41 313e 5e84 34be b434 8a3e
000003d0: 4b3f 68bd 2f84 8e3e 2077 b33d 9c12 25bf
000003e0: 3bc3 e83c 1f8a e7be 12c8 af3d 1cbf 0f3e
000003f0: 3c91 a5be 40f1 73be 66a9 3b3d 3924 7a3e

sequential/dense_1/MatMul f4 [64, 128]
0.317745 -0.004386539 -0.0031346404 0.053226158 -0.13229068 -0.39126542 0.057313375 -0.17897907
0.108665735 -0.070363425 -0.0027900403 0.16151382 -0.06992277 0.2520886 -0.15716743 -0.12238082
0.06507395 0.092064954 -0.14563638 0.07020773 -0.00060745736 -0.119921364 -0.080683656 -0.15979956
0.022783244 -0.038926862 -0.032550395 0.0037016647 0.3470166 -0.15667742 0.3743954 -0.32601476
0.21628222 -0.09112435 0.04341164 -0.09328443 0.16757092 0.013923601 0.035985198 -0.006937463
0.33859685 -0.09794005 0.18561728 -0.13147835 0.12975678 0.20024943 -0.14307748 0.13360813
-0.13004702 -0.025237678 0.10178361 0.17256024 0.15467401 -0.07950349 0.29237783 0.004329501
-0.011667685 -0.041405167 0.22418712 -0.05998419 -0.24635458 -0.13703457 0.12518853 -0.08891776
0.12718503 0.22253141 -0.1430293 0.20869075 -0.06555647 -0.03746605 0.05557606 -0.25337738
0.011697118 -0.03088261 0.046023123 0.28394762 -0.0039870306 0.2422248 -0.117900945 0.22887027
-0.18291178 0.13428403 -0.19430089 -0.061202575 0.20950395 -0.090779446 0.33124176 0.24080877
0.036343414 -0.12528318 0.2710154 0.03104877 0.05732616 0.23947884 0.25686076 0.14905153
0.08535344 0.117349066 -0.6472046 0.19848773 0.11318815 0.045965765 0.09191359 0.35293904
0.015922006 -0.34159178 -0.25292525 0.24718523 0.11729659 -0.28393462 -0.1465377 0.05511083
0.28993744 0.04014215 0.32372817 0.12769797 -0.15536764 0.054717254 0.020319073 -0.18106997
-0.0023069952 0.26675388 -0.025337623 0.15788805 -0.17065555 -0.019473583 0.058038548 -0.21901467
0.08396006 -0.07381604 -0.14116588 -0.09256976 -0.27927825 0.21918158 -0.16706064 0.15100977
0.044324957 0.12188102 0.101624615 -0.22239155 -0.24091798 -0.1901136 -0.023164267 0.02554574
0.19898924 -0.15321255 0.059123 0.08280161 -0.2039496 0.033297528 0.21942537 0.31053525
0.005077312 -0.083117925 -0.0038487746 -0.04474334 0.43961135 0.14722621 -0.16204211 0.0023673505
0.10096125 0.06314859 -0.058707137 0.13807806 0.080812335 0.09684746 0.17034864 -0.08366108
-0.28224504 0.068236634 -0.23880994 -0.13787298 -0.37764436 0.032959566 0.0036464944 -0.14089912
-0.03757453 -0.291773 0.0984819 0.21435517 -0.020858232 0.025712267 -0.033330865 0.17863712
-0.33298945 -0.16354547 -0.15171693 0.21070482 -0.11016134 -0.07200629 0.109822854 0.32118842
0.091243535 0.103377305 -0.041550376 0.07712572 -0.063078456 -0.2389649 0.09953984 -0.009204764
0.5780573 0.22962913 0.18195981 -0.09641113 -0.2768412 -0.067696236 -0.16370006 -0.16250022
0.21272567 -0.12906839 0.02663552 -0.38486373 -0.40242422 -0.084814735 0.1861705 -0.22614247
-0.09870238 -0.15223636 0.21574508 -0.27442598 -0.04008704 -0.025608346 -0.09317277 -0.07775378
0.3144487 0.22345251 0.023397528 -0.09278612 0.21332541 0.2449389 -0.033727854 -0.010721916
0.024658201 -0.026297884 0.1084371 -0.17559972 -0.15012687 0.13553199 0.05279519 0.0948142
-0.14218915 0.023202324 -0.3530438 -0.21986488 -0.033670254 0.118719384 -0.10562471 0.14371802
0.123626396 -0.33081764 -0.19496785 0.25134778 -0.10695099 0.17478856 0.22324215 -0.07085428
00000000: 79af a23e f5bc 8fbb 8a6e 4dbb ac03 5a3d
00000010: 3577 07be f153 c8be 6ec1 6a3d 4a46 37be
00000020: 248c de3d b31a 90bd 1cd9 36bb e163 253e
00000030: ab33 8fbd c211 813e 80f0 20be cca2 fabd
00000040: 7e45 853d 8d8c bc3d b421 15be 12c9 8f3d
00000050: c63d 1fba 5599 f5bd 793d a5bd 7fa2 23be
00000060: eda3 ba3c c671 1fbd 9053 05bd a197 723b
00000070: 29ac b13e 0c70 20be c1b0 bf3e 68eb a6be
00000080: 1679 5d3e 679f babd 67d0 313d e80b bfbd
00000090: b697 2b3e d11f 643c 3765 133d a853 e3bb
000000a0: 915c ad3e cb94 c8bd 7512 3e3e 43a2 06be
000000b0: f6de 043e 300e 4d3e e782 12be 92d0 083e
000000c0: 0c2b 05be 3fbf cebc ed73 d03d a2b3 303e
000000d0: dd62 1e3e bad2 a2bd 8cb2 953e 7dde 8d3b
000000e0: d129 3fbc 7798 29bd 4f91 653e fbb1 75bd
000000f0: 6044 7cbe ca52 0cbe 6c31 003e 841a b6bd
00000100: cb3c 023e 46df 633e 4676 12be 07b3 553e
00000110: 7842 86bd 0076 19bd b9a3 633d aeba 81be
00000120: 45a5 3f3c 87fd fcbc be82 3c3d 9561 913e
00000130: a3a5 82bb c709 783e 0d76 f1bd f85c 6a3e
00000140: 3a4d 3bbe c181 093e d0f6 46be 8daf 7abd
00000150: 3488 563e 93ea b9bd 8598 a93e 9396 763e
00000160: d5dc 143d 3c4a 00be 88c2 8a3e fd59 fe3c
00000170: d6ce 6a3d f139 753e 4183 833e f7a0 183e
00000180: c9cd ae3d b554 f03d 33af 25bf 5e40 4b3e
00000190: 30cf e73d 9946 3c3d 313d bc3d 6db4 b43e
000001a0: de6e 823c 1ee5 aebe 6b7f 81be 201e 7d3e
000001b0: 3239 f03d e15f 91be fb0d 16be e5bb 613d
000001c0: ae72 943e 186c 243d b3bf a53e 42c3 023e
000001d0: b218 1fbe 331f 603d 2f74 a63c 686a 39be
000001e0: f530 17bb f793 883e d990 cfbc 68ad 213e
000001f0: 54c0 2ebe 1087 9fbc d4b9 6d3d 6245 60be
00000200: 40f3 ab3d dd2c 97bd ca8d 10be 3795 bdbd
00000210: 8ffd 8ebe 2371 603e f211 2bbe 4ea2 1a3e
00000220: 168e 353d c29c f93d 9120 d03d 9cba 63be
00000230: 34b3 76be 24ad 42be fdc2 bdbc 4d45 d13c
00000240: d6c3 4b3e c0e3 1cbe f52a 723d e493 a93d
00000250: 2ad8 50be fd62 083d 0bb1 603e 7afe 9e3e
00000260: 945f a63b bb39 aabd b93b 7cbb cb44 37bd
00000270: bd14 e13e 78c2 163e 5eee 25be 8d25 1b3b
00000280: c6c4 ce3d 0c54 813d e576 70bd 5664 0d3e
00000290: f080 a53d f657 c63d e06f 2e3e 8056 abbd
000002a0: 6c82 90be a6bf 8b3d 988a 74be 932e 0dbe
000002b0: 9a5a c1be 9c00 073d 06fa 6e3b dc47 10be
000002c0: c0e7 19bd 4563 95be e1b0 c93d ec7f 5b3e
000002d0: e2de aabc 88a2 d23c f285 08bd a6ec 363e
000002e0: 987d aabe 7778 27be af5b 1bbe 01c3 573e
000002f0: 459c e1bd 0978 93bd ceea e03d cf72 a43e
00000300: e4dd ba3d 7bb7 d33d ba30 2abd 17f4 9d3d
00000310: 472f 81bd 37b3 74be 8bdb cb3d 94cf 16bc
00000320: 90fb 133f e623 6b3e ac53 3a3e 3373 c5bd
00000330: 21be 8dbe 53a4 8abd fda0 27be 7566 26be
00000340: c2d4 593e 812a 04be bc32 da3c dc0c c5be
00000350: 8c0a cebe 59b3 adbd 7ba3 3e3e e491 67be
00000360: 7924 cabd d9e3 1bbe 47ec 5c3e 9081 8cbe
00000370: 4f32 24bd 98c8 d1bc 5ed1 bebd 603d 9fbd
00000380: 6cff a03e bcd0 643e 2cac bf3c a606 bebd
00000390: fa71 5a3e 43d1 7a3e 3826 0abd faaa 2fbc
000003a0: ffff c93c a96e d7bc 4514 de3d 6ad0 33be
000003b0: dcba 19be e6c8 0a3e c53f 583d f32d c23d
000003c0: 089a 11be cd12 be3c 28c2 b4be 4224 61be
000003d0: d2e9 09bd 2623 f33d c551 d8bd d12a 133e
000003e0: d62f fd3d ee60 a9be a7a5 47be a8b0 803e
000003f0: 1f09 dbbd c6fb 323e 9799 643e 0c1c 91bd

sequential/dense_2/MatMul f4 [22, 64]
-0.23417334 -0.35070628 -0.13650024 -0.47118855 -0.37075645 -0.07582383 -0.6850207 -0.05268105
-0.3240986 0.19395557 -0.30434278 -0.024896672 -0.013459961 0.044002745 0.05708874 -0.12596129
-0.7090617 -0.1385604 -0.23031153 0.076937005 -0.35436898 0.098377 0.2555294 0.048973773
0.34247333 -0.59128916 -0.5534844 -0.35468832 0.05027206 -0.10888523 -0.51424754 0.22917575
-0.16352275 -0.05804968 0.33507246 -0.5695542 0.057925843 -0.35895896 0.19299427 -0.19992574
0.2823127 -0.10975386 -0.5661123 -0.085804716 -0.019799156 0.19201654 -0.23627812 -0.6813519
0.35852242 -0.37501684 -0.22880563 0.17676368 0.13924609 -0.4007198 0.29865155 0.08935497
-0.06166634 0.12455707 -0.051817123 0.3045631 -0.41228613 0.2008885 0.27547404 0.1295777
-0.5360441 -0.47555885 0.17146756 0.062656775 -0.18263513 -0.045871712 0.12779212 -0.15280947
0.18592225 0.22958577 -0.13649122 0.3320924 -0.20744458 -0.28908134 -0.2952469 0.40705782
0.02011097 -0.30380255 0.19187489 -0.26905283 0.22635467 -0.43526453 -0.26558104 -0.038107757
0.13807441 -0.61373186 0.18557122 0.14469416 -0.6575082 -0.18282592 0.22973616 0.25527194
-0.47585413 0.19952255 -0.21916376 0.094319984 -0.79349184 -0.48442703 -0.062179312 0.36464548
-0.035634056 -0.2046038 -0.21414737 0.016888974 0.006824619 -0.5029966 -0.20322394 -0.10745307
0.15797357 0.29989383 -0.61467093 -0.19217402 -0.41178563 -0.07828215 -0.26763496 0.07498938
-0.48934636 0.38961342 -0.47730482 -0.12855025 0.3298208 0.19203454 -0.15394911 0.26043257
-0.087855354 0.2881894 -0.13752915 -0.43566447 -0.003802382 -0.3413258 0.10854758 -0.3094203
-0.43589985 -0.078535795 -0.15260503 -0.585389 -0.023970762 -0.3871429 0.31383514 0.19870879
0.14106344 0.1804468 -0.039137173 0.25297236 0.1858954 -0.17217045 -0.31955963 0.16185336
-0.10309555 0.23909263 -0.18289064 0.07607963 -0.325545 -0.114915624 -0.12859908 0.30960128
-0.07869391 -0.07801977 0.07232023 -0.05923955 -0.47206947 -0.21581826 0.03659568 0.117064916
-0.008166029 -0.42085958 0.1582691 0.24139872 -0.12088937 0.21841681 -0.6252384 0.03467403
-0.09590246 -0.30427647 -0.21677862 0.055003494 0.21659417 0.29424205 0.21265313 -0.31555176
-0.07881651 -0.21442963 -0.4035902 0.27308118 0.07004279 -0.075483225 0.031416453 0.2665508
-0.6158547 0.03292362 -0.27381486 0.2578975 0.019933967 -0.39182734 0.20703775 -0.14743759
-0.33235413 -0.05811137 -0.5333392 0.33409792 -0.21092248 -0.70296377 -0.60805684 0.221203
-0.05597542 0.22215757 -0.10946885 -0.013996505 0.19022611 0.29955226 -0.4050209 -0.2259605
-0.49025226 -0.18909648 -0.34417275 0.16916184 -0.07990893 -0.3149275 0.24412423 0.10553888
-0.5512757 -0.6549521 0.039300986 -0.42576602 0.08503033 -0.22707099 0.3193119 0.27414936
0.08647568 -0.095060915 -0.45111296 0.37675917 -0.65997785 0.26948842 -0.08553599 -0.5069369
-0.57005715 -0.03333622 -0.25019795 0.34901646 -0.481022 -0.40682465 0.00911237 0.037612926
-0.24548285 -0.24496956 -0.07919995 0.09787043 0.2174584 0.18393283 0.035588287 -0.010840913
00000000: 23cb 6fbe c68f b3be b8c6 0bbe a03f f1be
00000010: cad3 bdbe 8649 9bbd 845d 2fbf 16c8 57bd
00000020: 40f0 a5be 4a9c 463e d1d2 9bbe 1bf4 cbbc
00000030: 2b87 5cbc 393c 343d e2d5 693d fffb 00be
00000040: 1185 35bf c7e2 0dbe c9d6 6bbe 2691 9d3d
00000050: da6f b5be e179 c93d c0d4 823e b998 483d
00000060: aa58 af3e ba5e 17bf 27b1 0dbf b599 b5be
00000070: 13ea 4d3d 38ff debd baa5 03bf 0cad 6a3e
00000080: 8272 27be 80c5 6dbd 9e8e ab3e 4ece 11bf
00000090: a643 6d3d 78c9 b7be 4aa0 453e 55b9 4cbe
000000a0: 4a8b 903e a2c6 e0bd bcec 10bf 62ba afbd
000000b0: d731 a2bc fc9f 443e e4f2 71be 146d 2ebf
000000c0: 4090 b73e 3502 c0be 064c 6abe 8a01 353e
000000d0: 8796 0e3e 252b cdbe dbe8 983e bdff b63d
000000e0: d895 7cbd c717 ff3d 313e 54bd b2ef 9b3e
000000f0: 2b17 d3be b7b5 4d3e ef0a 8d3e 04b0 043e
00000100: 303a 09bf 737c f3be 3195 2f3e 3252 803d
00000110: b404 3bbe fae3 3bbd f0db 023e 167a 1cbe
00000120: 6762 3e3e 8818 6b3e 5bc4 0bbe 0408 aa3e
00000130: 5a6c 54be 7802 94be 9a2a 97be e269 d03e
00000140: c3bf a43c 028c 9bbe da7a 443e 4bc1 89be
00000150: 85c9 673e feda debe 3dfa 87be e116 1cbd
00000160: 6163 0d3e 881d 1dbf 6206 3e3e b52a 143e
00000170: 7552 28bf b836 3bbe f53f 6b3e 01b3 823e
00000180: 27a3 f3be a44f 4c3e 776c 60be d62a c13d
00000190: 4822 4bbf d206 f8be bcaf 7ebd d0b2 ba3e
000001a0: 04f5 11bd a983 51be 7349 5bbe bf5a 8a3c
000001b0: 0ea1 df3b 63c4 00bf f019 50be 5b10 dcbd
000001c0: d3c3 213e af8b 993e 135b 1dbf 44c9 44be
000001d0: 91d5 d2be 6452 a0bd 7307 89be 0894 993d
000001e0: 9b8b fabe 697b c73e 4c61 f4be ada2 03be
000001f0: 46de a83e b4a4 443e d6a4 1dbe 6b57 853e
00000200: 82ed b3bd 908d 933e 71d4 0cbe 6a0f dfbe
00000210: 6231 79bb 41c2 aebe 324e de3d 566c 9ebe
00000220: 442e dfbe 60d7 a0bd 7e44 1cbe 0edc 15bf
00000230: 555e c4bc 9837 c6be 00af a03e 517a 4b3e
00000240: ef72 103e 0cc7 383e 4d4e 20bd 9885 813e
00000250: 5d5b 3e3e 734d 30be 529d a3be e3bc 253e
00000260: c223 d3bd b3d4 743e af47 3bbe a3cf 9b3d
00000270: d6ad a6be e258 ebbd 7aaf 03be 0f84 9e3e
00000280: 462a a1bd d4c8 9fbd a11c 943d 2ca5 72bd
00000290: 17b3 f1be 76ff 5cbe 5ae5 153d bbbf ef3d
000002a0: cfca 05bc e87a d7be 4c11 223e 3a31 773e
000002b0: d994 f7bd a8a8 5f3e a00f 20bf 5b06 0e3d
000002c0: 8268 c4bd 20ca 9bbe 37fb 5dbe 584b 613d
000002d0: ddca 5d3e e5a6 963e bec1 593e 0090 a1be
000002e0: 8d6a a1bd 7193 5bbe 60a3 cebe 4cd1 8b3e
000002f0: 9872 8f3d f396 9abd 8aae 003d 5979 883e
00000300: a7a8 1dbf ebda 063d 7631 8cbe 240b 843e
00000310: 8f4c a33c 989d c8be b401 543e e1f9 16be
00000320: 522a aabe 3006 6ebd eb88 08bf e20e ab3e
00000330: 10fc 57be 6ff5 33bf 9da9 1bbf 0a83 623e
00000340: 7b46 65bd 467d 633e 3431 e0bd 9951 65bc
00000350: a2ca 423e ea5e 993e e65e cfbe 3062 67be
00000360: 5802 fbbe 82a2 41be 6937 b0be c338 2d3e
00000370: 4ba7 a3bd 2d3e a1be b4fb 793e c524 d83d
00000380: 6720 0dbf f1aa 27bf 12fa 203d 01fe d9be
00000390: 6224 ae3d 4c85 68be d97c a33e 4e5d 8c3e
000003a0: 291a b13d 4caf c2bd 47f8 e6be 94e6 c03e
000003b0: 4ff4 28bf 63fa 893e 7e2d afbd 9ec6 01bf
000003c0: 44ef 11bf 8f8b 08bd f219 80be 49b2 b23e
000003d0: 8448 f6be 524b d0be 0d4c 153c 0310 1a3d
000003e0: db5f 7bbe 4dd9 7abe 9533 a2bd 4b70 c83d
000003f0: 6aad 5e3e e358 3c3e 06c5 113d 169e 31bc
