app/src/main/ml/neural_network_model.tflite (tflite, 13160 bytes, 6 tensors)

sequential_1/dense_5/BiasAdd/ReadVariableOp f4 [7]
00000000: 718a 8dbd 6a04 153d 3732 8cbd 62f8 ffbb
00000010: 4e7e 173d 11fc 513c c2da 8c3d
-0.06911171 0.036381163 -0.06845515 -0.007811592 0.036985688 0.012816445 0.06877662

sequential_1/dense_4/BiasAdd/ReadVariableOp f4 [32]
00000000: ca79 63bc febb 26bd 85a1 b23d b2e6 ae3d
00000010: 164d 933d b238 c03d e755 c33b b776 d13c
00000020: 0bea 1c3d d39a 8ebb bd57 2f3d f361 8f3d
00000030: b379 1d3d 0859 38bc a068 6f3d 8cbf 3c3d
00000040: 4c38 303d cda4 f3bb bd19 cabb 2f29 8e3c
00000050: 6e30 823d 3ee4 ba3d 0e6b cd3c d8a9 bb3d
00000060: fa31 92bc 8d1d c13d f11d 803d d7a0 b23d
00000070: 583a 8439 3ef8 5f3d 4efe 303d 99d0 943d
-0.013884017 -0.040706627 0.08722214 0.085400954 0.07192437 0.09385814 0.005961168 0.025569303
0.03830914 -0.0043519526 0.042808283 0.07001104 0.03844614 -0.011251695 0.058449388 0.04608111
0.04302244 -0.0074354173 -0.006167619 0.017353622 0.063568935 0.09125565 0.025075462 0.091632545
-0.017846096 0.094294645 0.06255711 0.08722084 0.0002522047 0.0546801 0.043211274 0.07266349

sequential_1/dense_3/BiasAdd/ReadVariableOp f4 [64]
00000000: beef 903d be28 c13d 6e87 883c 7924 a23d
00000010: e00d d63d 5cc2 aa3d 0417 a23d 4f32 32bd
00000020: 1429 063d cd50 473d df5a 843d 6c6d 523a
00000030: 2c88 d73d 5a50 4d3d 8fec a63d a094 e13d
00000040: f87e d63c 8891 5dbd 4b4c b73d b740 843d
00000050: a80e 183d c13f 9c3d 4900 cd3d 06f4 ac3d
00000060: be55 af3d d95b 7e3d 7463 833c 7518 7c3d
00000070: aeea 113d 2acb ad3d 66eb e43c 479a 873d
00000080: 9634 b93d c65c 9e3c aea4 86bd 268f 403d
00000090: 41a7 833d 5151 59bc 3b38 df3d bb60 cf3d
000000a0: 4d58 5c3d 3758 463d a4ec 573d 9544 653d
000000b0: f72e d53d 5234 673d c657 59bd 872a 8a3b
000000c0: b5a8 50bd 144b 863d 7a7e d03d 09b5 5e3d
000000d0: 01d3 4a3c 2fd8 b53d be5c ee3b 7f12 113d
000000e0: 48fa b5bc 5967 ca3d 7985 723d be22 3c3d
000000f0: fe00 1c3d 33ff 9d3c 4272 e23d b859 5abd
0.07076977 0.09431599 0.01666614 0.07917113 0.10451865 0.08337852 0.07914546 -0.04350501
0.03275402 0.048661042 0.06462645 0.00080271694 0.105240196 0.050125457 0.08150589 0.11014676
0.02618359 -0.054093868 0.089500986 0.06457656 0.037123352 0.076293476 0.1000982 0.08444981
0.08561276 0.06209931 0.016038634 0.06154676 0.0356242 0.08486016 0.027944278 0.06621223
0.09043233 0.019331347 -0.06574379 0.047011517 0.064283855 -0.013264016 0.10899397 0.10125872
0.053795148 0.048423972 0.052715912 0.055973608 0.104093485 0.05644638 -0.053062223 0.0042164954
-0.05094214 0.06557289 0.101803735 0.054371867 0.012379409 0.088791244 0.0072742393 0.03541803
-0.02221407 0.09882993 0.05920932 0.04593157 0.038086884 0.019286728 0.11056949 -0.05330822

sequential_1/dense_3/MatMul f4 [64, 6]
00000000: 36c3 43be 0e6f ad3e d7b5 fabd bba5 80bd
00000010: 21f9 553e 740e 773e e312 2dbe c826 783e
00000020: b662 433e fc88 b93e 5734 0dbe 79db c2be
00000030: 748c 5b3e 7964 bcbd 04fb 0538 d763 8b3e
00000040: c2a2 8fbe e38e 5bbc f3ea 52be cfc5 02be
00000050: 989c 933e 8f9a c93d 6819 b7be 27bb c7bd
00000060: 831f 96be bf61 553e 3735 5dbe 1b10 9cbe
00000070: 3422 a7be d825 55bd 2b25 9bbe 4a60 713e
00000080: 15db 3abd 17ca 86be 9a65 ab3c 7bf3 1dbe
00000090: 772e 583d 018d cbbd 365f 2dbb 100d 823e
000000a0: 875e cb3d a1be bfbe fc9b 72be 195d 703e
000000b0: cfae e2bd 1827 713e e827 8a3d 9544 293c
000000c0: e0f0 523c 7b86 11be e907 553e cfc8 c4be
000000d0: 5ae1 b9be 3e4f a1be b9e0 3cbe 6b6c e3bc
000000e0: b81a b2bd 3b0c fabb de45 753e ff6f 823e
000000f0: a771 093e 3ea5 fdbd abe7 553e de79 b5be
00000100: c32b 9e3e 6e02 063e a1d9 25be 3adf a2bb
00000110: f2a2 a83d 84d0 a8bc 1fe4 42be bef9 a5be
00000120: 79a1 733e 147d 953e 79c9 7bbe ed65 0d3e
00000130: 898c b4be 6fbc dcbc 7866 8abe d8d3 6abe
00000140: d8e3 1c3e efff 07be 4ca8 94be 0faa 463e
00000150: 3f0d 7cbe 4e64 613d 9884 59bd 734c 853e
00000160: 946f 523d 15bc a7bd f14b 613e 37c2 27be
00000170: 4413 103e 574f 4a3e ddf1 82be 7dbd e03d
00000180: 8af6 91be 23f4 953e f47d 9ebd 9904 c9bd
00000190: fef3 9a3e b50e 9cbe e254 eebd 71cc 9bbe
000001a0: 2d67 fabd 6a71 5a3e 95ac 5bbe 488a 963d
000001b0: 8668 23be 3d50 cbbd e041 d5bd 4e0f e43d
000001c0: 605f c2be f8b4 4fbc 1f1f 913c 93bf 423e
000001d0: ea0c 123c 5692 4ebe 272c 2d3e 9ebc 393c
000001e0: df3d 5ebe 4339 95bd da2a 863e 15a3 8e3d
000001f0: 4649 08be 2e63 97be 6f68 87bd 0da1 023e
00000200: 64a2 873e ffac ae3d 9014 ce3c 82e6 4cbe
00000210: ad65 9bbe fe46 113e 5040 b1bd 1f42 8e3c
00000220: 2870 633e db07 243e 723a eabd 45f2 c03d
00000230: b20f 6e3d 8b5f 76be fa95 1abd f01b 903e
00000240: dc0d dcbd 7479 78be df42 683e b4c0 b73c
00000250: 46f1 973e bfd0 9a3d a365 66bc 8f2a 9a3d
00000260: f305 6b3d 44a0 ef3d 2e51 77bd 2dce a0be
00000270: 5ec1 833e 8262 2dbe 700c 403d 62f5 babd
00000280: 6cb5 71be 3de2 5b3e b9e2 ddbd 6aad 11be
00000290: 8b76 8cbe 6a6b 1b3e fa6c d33d b5d8 17be
000002a0: 1ee2 e9bc 9da2 743e 69f6 973d 7205 3fbe
000002b0: 9b76 383e 2608 b0bc b446 a3be 7261 cfbd
000002c0: 199b ea3d 2e3b a4be 9a45 01bd 4a97 9bbe
000002d0: 00bc 06be f241 c23d 5f33 8e3d 5e84 463d
000002e0: c7ff ab3e 02db 95be bedb 22be e655 773b
000002f0: b2cc 093e b767 7dbe 27a9 373e a23a 153d
00000300: 95e0 103e b703 03be 9d73 7f3e a9bd 953d
00000310: 4254 a23d ae21 b03e 8d18 353e bf74 71be
00000320: 1f01 57be a729 823e 681a babd ea21 913e
00000330: 5457 853e e63f 6b3d abbe 5bbe 356e 52be
00000340: 7a88 73bc dcd8 fbbd 502e aebd 9e8b c7bd
00000350: a2b2 3ebe 6695 293e ba89 13be 48fc d23c
00000360: 85f4 aebd ea15 4ebe 9b06 0d3d c3a0 8dbd
00000370: 07f6 943e 6e52 c5be 065f 3cbe d5b5 66be
00000380: 0a83 f23c 2691 913d 4f8c bcbd fb86 f4bd
00000390: bd63 983d 2dd8 203d 195a bdbd ac55 bf3e
000003a0: 9f67 c5be 1d68 1f3e bc4c 9fbe 6c0d ff3d
000003b0: ade6 493e 8ac0 68be bded 723e 465b acbe
000003c0: db01 013e 5c5e 95bd 50e1 533e 71c5 b4be
000003d0: ae8d 5c3e 21fd 7b3e 2cd9 32be a492 c93d
000003e0: 607d d33d 9035 3e3d f2d7 403e 4804 89be
000003f0: 246d 9a3b 0142 87be 35cb acbd 7bee e33c
-0.19117436 0.3387379 -0.122417144 -0.062816106 0.20895816 0.24126607 -0.16901736 0.24233544
0.19080624 0.36237323 -0.13789497 -0.3805807 0.21440297 -0.09198851 3.1943448e-05 0.2722461
-0.28053862 -0.013400766 -0.20597439 -0.1277077 0.2883041 0.09843933 -0.3576157 -0.09752493
-0.29320917 0.20838068 -0.21602331 -0.30481037 -0.32643282 -0.052038044 -0.30301794 0.23571888
-0.04561909 -0.26326057 0.02092247 -0.15424912 0.052778687 -0.09939004 -0.0026454455 0.2540059
0.09930139 -0.37450126 -0.23692316 0.23473014 -0.11068498 0.2355007 0.06745893 0.010331293
0.012874812 -0.14211456 0.20803799 -0.38434455 -0.36304742 -0.3150577 -0.184451 -0.027761659
-0.086965024 -0.0076308525 0.23952433 0.2547607 0.13422261 -0.12385033 0.20889156 -0.3544454
0.30892763 0.13086864 -0.161963 -0.0049704583 0.08234204 -0.02060724 -0.19032334 -0.324171
0.23792066 0.2919699 -0.24588574 0.13808413 -0.3526347 -0.02694532 -0.27031302 -0.22932374
0.1532129 -0.13281225 -0.2903465 0.1940081 -0.24614428 0.0550273 -0.053104967 0.2603489
0.05137594 -0.08190171 0.22001626 -0.16382681 0.14069849 0.19756828 -0.25575152 0.10973642
-0.28508407 0.29287824 -0.077388674 -0.0981533 0.30264276 -0.3047997 -0.11637284 -0.30429414
-0.122267105 0.21332327 -0.21452554 0.07350594 -0.15957841 -0.099274136 -0.10412955 0.11135732
-0.3796339 -0.012677424 0.017715035 0.19018392 0.008914212 -0.2017301 0.16911374 0.011336474
-0.2170329 -0.072863124 0.26204568 0.06964699 -0.13309202 -0.29567856 -0.06611716 0.12756748
0.26491082 0.0852909 0.02515629 -0.20009807 -0.3035101 0.14187238 -0.08654845 0.017365513
0.22210753 0.16018622 -0.11436929 0.09421209 0.058120437 -0.24059884 -0.037740685 0.28146315
-0.10744831 -0.2426508 0.2268176 0.022430755 0.29676265 0.075593464 -0.014062318 0.07527649
0.05737872 0.1170049 -0.060380153 -0.314073 0.25733465 -0.16932109 0.04688686 -0.09128834
-0.23604363 0.21473022 -0.108342595 -0.14226308 -0.2743419 0.15177694 0.1032352 -0.14828761
-0.028550204 0.23890157 0.07420046 -0.18654421 0.18013994 -0.02148826 -0.3188988 -0.10126008
0.11455364 -0.320764 -0.031560518 -0.30388862 -0.13157654 0.09485234 0.06943392 0.04846608
0.3359358 -0.29268652 -0.15904137 0.0037740408 0.13456991 -0.24746595 0.1793562 0.03643287
0.14148171 -0.12794386 0.24946447 0.073115654 0.07926227 0.34400696 0.17685147 -0.23579691
-0.20996521 0.25422403 -0.09087068 0.28346187 0.2604319 0.057433985 -0.21459453 -0.20549853
-0.0148640815 -0.12297222 -0.08504927 -0.09743427 -0.1862283 0.16560897 -0.14408007 0.025755063
-0.08542732 -0.20125547 0.034430128 -0.069154285 0.29093954 -0.3853945 -0.18395624 -0.22530301
0.0296035 0.07107763 -0.09206449 -0.11939808 0.074408986 0.03926866 -0.092457004 0.3737005
-0.3855562 0.1556706 -0.3111323 0.12453732 0.19716902 -0.22729698 0.23723502 -0.33663386
0.12598364 -0.07293388 0.20691419 -0.35306886 0.21538422 0.2460828 -0.17465657 0.098424226
0.10326648 0.0464378 0.18832377 -0.2676108 0.0047127176 -0.26417544 -0.08437196 0.027823677

sequential_1/dense_4/MatMul f4 [32, 64]
00000000: 479d 7d3c f018 68bd 9055 033d 8b35 bfbd
00000010: 101b 2bbe 9446 603e 4b99 00be 9c33 783e
00000020: 9b9b f1bd 92e0 253e 1dce e639 aa21 1cbe
00000030: 7719 c0bd b049 7fbc 7ce5 303e f7ea 62be
00000040: b328 7e3e 7b42 c03a fb27 e6bd 659e 5fbe
00000050: 5255 1bbe d61d 6ebe c320 a03d 5282 c73d
00000060: 139e dfbd d45d 5abe 9de9 e93c 6371 febd
00000070: 410c 3ebe 8a89 533e a06c 87bd 4bb6 19bd
00000080: 51da 9abd db7e 75be f00b 273e fb6b 07be
00000090: bd3e 353e 898a 4b3d 827a ed3d 8bf8 183e
000000a0: 6d4b 90be 7080 adbd 2da1 c6bd 73bf 623d
000000b0: 7a8e 87bd 4177 08be 3056 1bbe 7d5e e4bd
000000c0: 78e1 723d d6fe a2bd 9b0d 41be 6b65 c3bb
000000d0: 347a 4cbe 7776 2bbd 5803 5c3d cb7c 5e3d
000000e0: bd50 e4bb 39d6 5b3e 151a 53be b65f 413e
000000f0: 0f71 673e c89e 01bd 24c0 2cbe 33bc ca3d
00000100: 3aeb 973e 7cdb ea3d d9ec b9bc 90e6 1fbe
00000110: 49aa 8c3e a4ee c4bd 29b3 2f3e 4df6 b6bd
00000120: cdba ec3d 879b c0bd 5aac 18be 6aac 89bd
00000130: e15f e43d 2a90 8a3d 05a7 833d e51d 4d3e
00000140: 9164 54be 4018 64be 94e2 49be 7f10 173e
00000150: 1ed9 023d 41e1 8f3d baa9 983e 46dd 353e
00000160: 0811 853c b020 74be fc89 1b3e ddfc 6ebe
00000170: 0f9f 68be e45d 883a d0e5 86be df66 073e
00000180: da9f 903e 6ba1 b5bd df32 6cbe 78b2 46be
00000190: 7a84 953d 5050 77be 5681 eabd 3258 92be
000001a0: 1662 223e 5b52 4ebe dc78 c73d a510 f2bd
000001b0: bce7 1cbe d074 2abe fd67 903d 7615 36be
000001c0: 6aaa 813d a4b0 693e 2501 423e fcd6 28be
000001d0: 6cd2 af3d b571 8a3c a866 32bb 5911 db3d
000001e0: 9082 bbbd 12ae 8c3d 20b2 c23b a456 503e
000001f0: 079c 1cbe 3b17 26be 22e5 4bbe 91e2 c83d
00000200: 8641 cf3d 6711 6e3e 6aaf c43c 5efa c9bd
00000210: b212 113e 8c8e 6c3e 536c 83be 828a 253e
00000220: 244b 473e 30c5 2b3d 221a 713e 5dc7 963e
00000230: 83e3 353e 2c89 06be 679e 993d 699a f43d
00000240: 5c9a 593d 3a98 a43d dd3d 843e 8430 0fbe
00000250: 2eeb 8f3e d1c0 d4bd a369 3a3e 81df 2bbe
00000260: 0c61 03be 84f3 283e e61a 89bd 7a25 8b3e
00000270: 0b41 1cbe 3130 083e 8c08 26be c8a7 4a3e
00000280: 605c 89be 6d97 50be 08c0 24be f74f 96bd
00000290: eaf5 d03d 576e a2bc 2da8 7f3d 4e71 cabd
000002a0: c96d 41be fc6f 33be 3c5a 1cbe 234c bdbd
000002b0: 90f4 903e ac64 403e 85a8 98bd 3f04 d5bc
000002c0: 4094 ac3d d16c 963d 87c1 2dbd bbef 77be
000002d0: ea49 98be 3152 823e 630b 1d3e a73d 203e
000002e0: 1f0d 423e 3416 2a3e 9034 f23b 38b3 1dbe
000002f0: 11c2 89be 04db 9ebe e3b4 253e 35e9 49be
00000300: 6b21 313e c508 5d3e 1853 113e ac3b cdbd
00000310: 41ce 0bbe 8f4a 783d 1bb8 a53d 4cfc f03d
00000320: 99e7 88be 94e9 d9bd 8239 233e 9aa3 9f3d
00000330: 2e12 a63d 1fe2 513e 357e 8f3e 3f8b b53e
00000340: 09c5 333e 7fdd ffbc ce43 c83d 0572 363e
00000350: 588e 82bd 8692 b33c 1b15 593e 263b 39be
00000360: 8b9e 8f3d c0c0 4b3e 7c50 893e 6ac6 8a3e
00000370: 243b 09be 1e72 28bc 3c35 543e 3162 71bc
00000380: de96 393e c626 673e 3244 fa3d 29a9 423d
00000390: e197 933e b1c4 64bd f45c 273e 20c6 c6bd
000003a0: f94c 133e be0d 4e3e 2659 d63d 3475 9dbc
000003b0: 3357 08be effe cebd 8d8e 623d 134b 29bc
000003c0: 5d0b 2bbe 3032 8cbd 7eee 7cbe 1e58 5fbd
000003d0: ad87 20bc bca7 0b3d 5569 573e d19c ffbd
000003e0: 82bf 00bd 6c1b 15bb 239c 333e 91d9 903e
000003f0: 5507 98bc 70fe 10bd 4c40 3c3e 9d62 01bd
0.015479392 -0.056664407 0.03206402 -0.093363844 -0.16709542 0.21901923 -0.12558477 0.24238437
-0.117972575 0.16198948 0.00044022585 -0.15247217 -0.09379857 -0.015581533 0.17275041 -0.22159944
0.24820213 0.001466825 -0.112380944 -0.21837766 -0.15169266 -0.23253569 0.07818749 0.097416535
-0.10918822 -0.21324855 0.028553778 -0.124239706 -0.18559362 0.20657936 -0.066125154 -0.037527364
-0.07561172 -0.23974173 0.16313148 -0.13224785 0.17699714 0.049692664 0.11595632 0.14938562
-0.28182545 -0.08471763 -0.096987106 0.05535836 -0.06618972 -0.13326742 -0.15169597 -0.11150835
0.059297055 -0.07958762 -0.18852846 -0.0059630177 -0.19968492 -0.041861024 0.053714126 0.05431823
-0.0069676326 0.21468438 -0.20615418 0.18884167 0.22601722 -0.031645566 -0.16870171 0.098991774
0.2967165 0.114676446 -0.022695946 -0.15615296 0.27473667 -0.096158296 0.17158188 -0.08933697
0.11559067 -0.094046645 -0.14909497 -0.067223385 0.111511 0.06765778 0.06428341 0.20030935
-0.20741488 -0.22274876 -0.19715339 0.14752387 0.03194534 0.07025386 0.2981699 0.1776019
0.016243473 -0.23840594 0.15189356 -0.23338647 -0.22716926 0.0010403958 -0.26347208 0.13222836
0.28246957 -0.08868679 -0.23066281 -0.19404018 0.073006585 -0.2415173 -0.1145045 -0.28582913
0.1585773 -0.20148604 0.09739849 -0.11819581 -0.15322775 -0.16646123 0.07051084 -0.17781624
0.06331332 0.2282129 0.18945749 -0.1648826 0.08585057 0.016899923 -0.0027221832 0.10696668
-0.09155762 0.06869139 0.0059416443 0.20345551 -0.15293895 -0.16219799 -0.19911626 0.09808839
0.101199195 0.23248826 0.024009425 -0.09862207 0.14167288 0.23101252 -0.25668582 0.16166118
0.19462258 0.0419361 0.23545125 0.29448977 0.1776257 -0.13138264 0.07500916 0.11943514
0.053125724 0.080368474 0.25828448 -0.13983351 0.28109115 -0.10388339 0.1820436 -0.16784479
-0.12829989 0.16499144 -0.066945836 0.2717703 -0.15259187 0.13299634 -0.16214198 0.19790566
-0.2682829 -0.20370264 -0.16088879 -0.07339471 0.102031544 -0.019828005 0.062416244 -0.098848924
-0.18889536 -0.17523187 -0.15268797 -0.092430376 0.28311586 0.18788403 -0.074540175 -0.026003001
0.08426714 0.07344974 -0.04242089 -0.24212544 -0.29743892 0.25453332 0.15336375 0.15648519
0.18950318 0.16610032 0.00739152 -0.15400398 -0.26905873 -0.3102647 0.16182284 -0.19717868
0.17297904 0.21585377 0.14191854 -0.10021147 -0.13652898 0.06061798 0.08091756 0.11766872
-0.26739195 -0.106402546 0.15939906 0.077948764 0.08108936 0.20496415 0.28025976 0.354578
0.17555632 -0.031233547 0.09778558 0.17816932 -0.06374806 0.021920454 0.21199457 -0.1808897
0.070126615 0.19897747 0.26819217 0.27104503 -0.13401467 -0.010281114 0.20723432 -0.014732883
0.18123958 0.22573385 0.122200385 0.047524605 0.28826812 -0.055851642 0.16344053 -0.09705758
0.14384831 0.2012243 0.104662225 -0.019220926 -0.13314514 -0.101072185 0.05531173 -0.0103328405
-0.16703553 -0.0684551 -0.24700353 -0.054527394 -0.009797973 0.03409551 0.21036275 -0.12481082
-0.031432636 -0.002275194 0.1754003 0.2829099 -0.018558184 -0.0353989 0.18383902 -0.031588186

sequential_1/dense_5/MatMul f4 [7, 32]
00000000: 8953 8b3d eb0f af3c 18b5 e0bd 4e7e 133e
00000010: ac50 023c 6d04 92be 4116 d73e c003 353e
00000020: 16d1 acbb bf0f 95bc d4f3 f73d cb4a 60be
00000030: 9bf7 9dbe 1eb7 253e 9160 103e e45a fc3b
00000040: 4a7d 20bc c0e3 9cbc 3fa8 ed3d d10b 123e
00000050: 0c76 403e 4b11 be3d 28a5 843e 273c 9dbe
00000060: 7d59 20bd dfd2 a6be a23a 523e 4a73 a5be
00000070: d302 85be 2655 8a3e 1462 14be 0d79 503e
00000080: 5b4e 71be 062e 5f3d 9366 b8be a0ad 20be
00000090: a2de b53e c15f a2be 4504 163e b50a 9a3e
000000a0: 64d2 97be 6e09 213e ff7e c5be 22c0 943d
000000b0: a78a 85bd a883 26bd f57f 023e fe8e af3e
000000c0: 9dd2 5d3d 5682 76bd 29a2 dfbe cbf8 7ebe
000000d0: a963 9cbe 6c40 8e3e 656a 6ebe ac9f d93e
000000e0: a944 adbe 7941 453e f981 f0be cbc0 9a3e
000000f0: 134b cd3e ec33 b03d 6766 963e 3b1c a33e
00000100: cb2b c23e 2ca3 483d c16d 0cbd 1ad7 273d
00000110: 30e7 923b 0e6c 17be 91d4 9d3e 1373 9cbe
00000120: c1c8 36bd 553f 823e d0c5 7fbe b2d9 943c
00000130: f101 a43e 3cb1 543e ea94 963e ba6c 53bb
00000140: fa35 c03e 3485 69bd 56c8 a13e d53a c93d
00000150: 9935 1dbe 1f46 dcbe 5b2e 923e a7fb 7cbe
00000160: dea2 7bbd bf6e 3b3e 616b 2a3e f7ca 6abe
00000170: 7447 b7be 8a9f 2bbe 46e2 723e fc5a 773e
00000180: 11c0 803e e74c 8c3e 0704 e23e 0b06 dfbe
00000190: c078 ea3d f22d bd3e f4a8 b83e a5c9 12be
000001a0: db7a 5f3d 3e6e debd ea42 33be 60a7 b43e
000001b0: 6bf5 2ebd 3c80 e93e a626 bbbe 2d8a e1bd
000001c0: aafd 35be 1fc1 303e 436d b53d c8b8 babe
000001d0: 2e53 d13e 66b9 b03e cd4a 8bbe 2093 b43e
000001e0: 9ef6 04be e8a6 8d3e 57a7 c73e fada d8be
000001f0: 2e73 0c3e cad5 3f3e 83b2 cd3d d893 fd3c
00000200: 4412 e23d 3939 8fbe 5df2 2a3e 1c63 883e
00000210: 1405 e8be bf2e 453e f0de 7c3e 2ccd a7be
00000220: cf8d a8bd d04e bf3d e6c9 d03d 1155 e53e
00000230: 250d c03d 3a1d f0be 41a1 e5be 0de8 72be
00000240: a3a6 17be bb4b 833e 50b5 9b3e fc3c a53e
00000250: 659f c73d 9dcd f63e 1e8e e1bd 6eb0 e63c
00000260: 3c34 c73e 25e8 ee3e 8cae 25bd ce29 a03d
00000270: b137 313e 8d3e e4be 0c45 623e 8a72 63be
00000280: 4679 cabe 49ec a83e d909 5dbe 16bf 243e
00000290: 2340 83be 8380 b2be 1372 ae3e 0275 8c3e
000002a0: cff1 b83e e53f 02bd 0e4c cb3e 6d40 e9bd
000002b0: 6ca5 093e 9f36 6fbe 4b0d f5bd a524 fc3e
000002c0: 9270 adbe 96f9 8d3c dbee 41be ac3c 9e3e
000002d0: 08b2 833e c71d 923e d598 5abe 468d 0c3e
000002e0: 4916 79be f693 413e 936b 90be e2f2 d13c
000002f0: 5d83 aebe 13d8 e6be d815 c13e 3f56 953e
00000300: 53cd b33e dd0f d8bd 6932 103d ba2f 8d3e
00000310: 1605 e3be 14b6 9b3e ca6c 87be 9a60 2c3d
00000320: 76eb 523e 76f2 a53e 529e 37bd f773 bfbe
00000330: d6b2 7bbe acb4 74be bf31 b9be 4212 bdbe
00000340: c445 dfbd 0ac3 c63e 708f a5be 35b1 383d
00000350: 9e00 ab3e caa2 bebe fb06 4fbe ccbd df3e
00000360: 479e acbe af44 12be 43ef b13e 81eb db3e
00000370: 1473 233e 1c0e d1be 087e aebe e614 bbbe
0.068030424 0.021369895 -0.10972041 0.1440365 0.007953804 -0.28519002 0.42009166 0.17677212
-0.0052739484 -0.018195985 0.121070534 -0.21903531 -0.3085297 0.16183135 0.14099337 0.0077012647
-0.009795496 -0.019151568 0.11604356 0.1426232 0.18795031 0.09280642 0.25907254 -0.30709955
-0.039147843 -0.32582757 0.20530179 -0.3231452 -0.25978717 0.27018088 -0.14490539 0.20358677
-0.23565046 0.05448725 -0.36015758 -0.15691233 0.35521418 -0.3171368 0.14650066 0.30086294
-0.29652703 0.15726253 -0.38573453 0.07263209 -0.065205865 -0.0406529 0.12744124 0.34288782
0.054155935 -0.06018289 -0.43678406 -0.24899594 -0.30544785 0.27783525 -0.23282774 0.42504632
-0.33841446 0.19263257 -0.4697416 0.30225214 0.4009634 0.08603653 0.29375002 0.31857476
0.37924036 0.048983738 -0.034284357 0.04097662 0.004483126 -0.14787313 0.30826238 -0.30556545
-0.044625048 0.25438944 -0.24977803 0.018170211 0.3203273 0.20770735 0.29410487 -0.003226085
0.3754118 -0.057011798 0.31598157 0.098256744 -0.15352477 -0.43022248 0.2855099 -0.24705373
-0.06143462 0.18303965 0.16642524 -0.22928987 -0.35796702 -0.16760078 0.23719129 0.24155802
0.25146535 0.27402422 0.44143698 -0.43559298 0.114488125 0.36949116 0.360664 -0.14334734
0.054560523 -0.10860871 -0.17505994 0.35283947 -0.042714518 0.45605648 -0.36552924 -0.11012683
-0.17772546 0.1726117 0.08858731 -0.36469102 0.40883774 0.34516448 -0.27205506 0.35268497
-0.12984702 0.27666402 0.38994858 -0.42354566 0.13715813 0.18733898 0.10043814 0.030954286
0.1103864 -0.27973345 0.16694017 0.26638114 -0.45316374 0.19256113 0.24694419 -0.3277372
-0.08230173 0.09341204 0.10194759 0.44791463 0.09377507 -0.46897298 -0.4484959 -0.23721333
-0.1480966 0.25643715 0.30411768 0.3227309 0.09747199 0.48203745 -0.11013435 0.0281603
0.3890704 0.46661487 -0.040449664 0.078204736 0.17306401 -0.44578972 0.22096652 -0.22211662
-0.3954565 0.3299277 -0.21585788 0.16088519 -0.2563487 -0.34863672 0.34071407 0.2743302
0.36121985 -0.031799216 0.39706463 -0.11389241 0.1344201 -0.2336068 -0.11965426 0.49246708
-0.33874947 0.017330926 -0.18938772 0.30905664 0.25721765 0.28538343 -0.21347363 0.13725767
-0.24324907 0.18904099 -0.28207073 0.02562851 -0.34084597 -0.45086727 0.37711978 0.29167363
0.35117587 -0.10549901 0.035204325 0.27575475 -0.44339818 0.30412352 -0.26450187 0.042084314
0.20597634 0.32411546 -0.04482872 -0.37393162 -0.24579939 -0.23897046 -0.36170766 -0.36927992
-0.109019786 0.38820678 -0.32335997 0.045090873 0.33398908 -0.37233573 -0.20217507 0.4369949
-0.33714506 -0.14284013 0.34752855 0.42953113 0.15961868 -0.40831077 -0.3408053 -0.36539382
